myapp/best_model3CNN.ckpt (torch, 682138 bytes, 10 tensors)

model.0.weight f4 [32, 1, 3, 3]
00000000: 32f7 103f 3a1e 023f 91a8 313e 625f 13bc
00000010: 1a76 7b3d f3a1 78be a44a 07bf f358 b6be
00000020: 5aa1 6ebe 2d04 a83d be70 cabe a6b2 87be
00000030: e8dd b53e 2c6b 4c3e 86e6 d3be e1a2 0e3d
00000040: 67bd 033f 2424 603e eecc b23e 62f8 9f3e
00000050: 2e53 8ebe 021b 083e 90e4 2ebe 8419 8abe
00000060: cb26 fb3e 8aa5 2ebe db67 cebe 9c92 c33e
00000070: 723a c1be 521d 2e3d e29e 563e 7902 58be
00000080: ac2c 34bd 9d6d f63e 3bd6 59bd 1ee5 cfbe
00000090: 89df b6be 80c8 d4be 9614 37bf 7bb7 493e
000000a0: 155c d8bd 148e 18be faac eb3e 6de9 2a3f
000000b0: b6c0 3e3f ec48 9f3e 2c8e e8b9 cff1 8e3e
000000c0: c081 b43c 0a47 513e f442 c43c 6c39 8bbe
000000d0: 5458 24be ab38 53be abc2 e9bd 9d5d f9be
000000e0: 8239 b6be 9f8f 243e ce8b aebe 01f2 18be
000000f0: 3e2a 103f dd47 283f 9c95 fb3e 0130 a9be
00000100: 3c1b 093f db2b a8bd a26a 47be 6806 073f
00000110: 8d88 b6bd b835 38be d151 b63e e016 8bbe
00000120: c58d 1c3f b610 f53e cb64 ed3e cc58 84be
00000130: eb82 86be c5df e03e fe5f 09bf e6be 97be
00000140: 60a3 6ebe 9ef1 ec3e bc7c 98be 7326 f8bb
00000150: 8cf2 813e 6dd9 d0bd 5fc7 4bbe 752f 44be
00000160: 3da2 97be c80e d4bd 3772 b23e 2741 803d
00000170: fca7 0a3d 5593 c9be ffde d53e 568d 243f
00000180: b18f 30bf 79a9 d4bd 196c 993e 63ec 813e
00000190: 0ecf c7be 38f2 95be 3774 633e ad91 a13e
000001a0: 8bc1 ed3e a122 ce3c 9c19 c0bd 07ff 28be
000001b0: 0c48 19be 7da9 94be 6884 cbbd 5d3a 88be
000001c0: d6ca a33d 6a75 e2bd b2a8 3fbe 9719 08be
000001d0: 0eca adbe 205c f63c 4fa4 4cbd 82dc 1fbe
000001e0: 8823 d4be 3cad 52be a669 dfbd a1b0 d4be
000001f0: 78f4 bbbe b24b e2be 9337 913e 0c2a 863e
00000200: 046c 373b 34ac c1be 2b73 59b9 cc23 923d
00000210: cbb4 813e 6110 ec3e 36db 05bd ad8f 573d
00000220: 402a e63e f73b a53e ea02 05bf 5654 893e
00000230: b3d7 0a3e 1ea3 70be 5e3f ecbe b630 c83e
00000240: e18d fdbe 1143 633e afaa e03e 761b 513e
00000250: 09d1 2b3f 5b2d 8ebe b05e c53e ac91 7b3e
00000260: f54a eebe 795b 0abf 8246 93be 434c f23e
00000270: f287 65be 235a 753e 891b 3dbd 0d4f bf3d
00000280: 59e7 1d3e 38a8 893e c2b7 283e 13ea 9dbe
00000290: 2c28 c53d 46db 94be b557 98be eb32 adbd
000002a0: 2cdb bbbd 8bc1 223e 7927 c23e 528f 73be
000002b0: c574 cfbe 5bf9 8c3e d6c1 363e d430 56bd
000002c0: 1c64 153f 794e 923e fce8 6a3e 0390 a43e
000002d0: 82ad 85be 209c c5be 8866 e2be 35b5 0c3d
000002e0: 220a e4be f7ea 12bd 0796 163e 6097 5ebd
000002f0: 726f e3be d56f f13e 7151 0b3f ea0c e03e
00000300: ec93 9a3e a475 f63e 0e91 8b3e ecd5 0b3f
00000310: 7f40 bf3e 2d79 da3e 2c49 eb3e 5afa 463f
00000320: 8556 0f3f a900 dcbe 690b 3d3e 3309 e23d
00000330: e713 52bf 883c 21bf ad66 423e 1951 ddbe
00000340: 5b56 4bbe 5504 813e 440a 06bf 473e 863e
00000350: 4763 e73e 76a4 9fbc 236e 083f 5e66 da3d
00000360: 97ba 543e b686 eb3d 48dc 09be 4a95 d5be
00000370: 0f26 933e 7a84 623e fb8b dfbe 562a bbbd
00000380: c840 da3e c72a d43c 109f 0cb7 29f6 37be
00000390: 6c98 9abe 6b1e a3be ea58 073e 5665 d13e
000003a0: e1ae 083e e52c 1f3d 6082 893e a34f a9bd
000003b0: 201b b3be 323b 6dbd 59f5 8abe 4c82 05bd
000003c0: e075 263e cd25 1f3d f4bb 7bbe 0ca1 cabe
000003d0: 6315 e13c 618d 4dbd 0dd2 79be 36de 093e
000003e0: 5901 0b3e 318d c43e b929 aa3e 3e95 43be
000003f0: e372 64bc 3c43 bdbe d60e b3be 867f 8fbe
0.5662719 0.5082737 0.17349459 -0.008994909 0.061391927 -0.24280529 -0.5284827 -0.35614738
-0.23303738 0.082039215 -0.3953914 -0.26503485 0.35520864 0.19962758 -0.41386813 0.034823302
0.5146088 0.21888787 0.34921974 0.3124419 -0.27797836 0.13291553 -0.17079377 -0.26972592
0.49053034 -0.17055336 -0.4031361 0.38197792 -0.37739903 0.04250843 0.20959046 -0.21094693
-0.043987915 0.48130503 -0.05318282 -0.4060449 -0.3571742 -0.4155922 -0.71515787 0.19698898
-0.10564438 -0.14897949 0.46030408 0.6676243 0.74512804 0.31110322 -0.00044356415 0.2791886
0.022034526 0.20437256 0.023957707 -0.27192247 -0.1604932 -0.20627086 -0.11414083 -0.48704234
-0.3559075 0.16070412 -0.34091038 -0.14936067 0.56314456 0.65734655 0.4913758 -0.33044437
0.5355718 -0.0821149 -0.19474271 0.5274415 -0.08912764 -0.17989242 0.35609296 -0.2716589
0.61153823 0.47864312 0.4636596 -0.25848997 -0.26271757 0.43920723 -0.536621 -0.2963783
-0.2330451 0.4627809 -0.29782665 -0.007572943 0.2538036 -0.10197721 -0.19900273 -0.19158728
-0.29615965 -0.10354382 0.34852764 0.06262427 0.03385161 -0.39370218 0.41771695 0.6427816
-0.68969256 -0.10383887 0.29965284 0.2537566 -0.39025158 -0.2928636 0.22212301 0.31556454
0.46436724 0.025162997 -0.093798846 -0.16503535 -0.1496889 -0.2903556 -0.09937364 -0.26607028
0.07997672 -0.11057551 -0.18716696 -0.13291012 -0.33943218 0.030073225 -0.049961384 -0.15611461
-0.41433358 -0.20573896 -0.10908823 -0.41541007 -0.36709952 -0.44198376 0.28362712 0.26203954
0.0027987966 -0.37826693 -0.00020737636 0.07135734 0.25333247 0.46106246 -0.03267976 0.052627254
0.4495411 0.32272312 -0.5195757 0.26822156 0.13558845 -0.23499724 -0.46142095 0.39099663
-0.49522308 0.22193553 0.4388022 0.20420632 0.6711584 -0.27768978 0.38548803 0.24567288
-0.46541563 -0.54045826 -0.2876473 0.47323808 -0.2241514 0.23960166 -0.046168838 0.093412496
0.15420283 0.26886153 0.16476348 -0.30842647 0.09626803 -0.29073542 -0.29754415 -0.084569775
-0.09172663 0.15894143 0.3792074 -0.23785141 -0.40518776 0.27533993 0.1784738 -0.05229266
0.5835588 0.28575495 0.22940439 0.32141122 -0.26108938 -0.38595676 -0.4421885 0.0343525
-0.4453898 -0.03586861 0.14705668 -0.05434358 -0.44420964 0.47155634 0.54421145 0.43759853
0.3019098 0.48136628 0.27259105 0.54623294 0.37353894 0.42670575 0.45954263 0.77725756
0.55991393 -0.42969254 0.18461384 0.11036911 -0.8206162 -0.6298299 0.1898448 -0.43225935
-0.19857161 0.25198618 -0.52359414 0.2621939 0.4519293 -0.0194876 0.53293055 0.10664056
0.20774303 0.115003034 -0.13462937 -0.4171546 0.28739974 0.22120848 -0.43661484 -0.09138934
0.4262755 0.025899304 -8.381685e-06 -0.17964996 -0.30194414 -0.31859145 0.13217512 0.40897626
0.13347961 0.038861174 0.2685728 -0.082671426 -0.34981632 -0.05791778 -0.2714031 -0.032594964
0.16255903 0.03885441 -0.24583417 -0.39575994 0.027476018 -0.050183658 -0.24396534 0.13463673
0.13574733 0.3838897 0.33234957 -0.190999 -0.013943407 -0.36965358 -0.34972256 -0.2802698

model.0.bias f4 [32]
00000000: aba9 d53d 2bb4 a63e 94b5 9abb c37d 913c
00000010: c513 d73e 79db 01be 14e0 d93e 4bc3 843e
00000020: a26a d13e 9152 37be d060 143f c85c a73e
00000030: 5915 a3be 72a6 8fbe 3196 f33e 8ff7 943e
00000040: 85e4 103f 35ac fb3d 52a0 8b3e dfc7 b33e
00000050: c9a2 0e3e 12da a63d 9b7d cc3e 8f36 d43e
00000060: a67d 87bd de70 78bd 8dd1 4c3e a58a 743e
00000070: c37d ad3e 83a4 093e d59c d03d cace e63e
0.10432752 0.32559332 -0.004721353 0.017760163 0.4200727 -0.12681378 0.4255377 0.25930247
0.40901667 -0.1790259 0.57960224 0.32687974 -0.31852224 -0.28056675 0.47575524 0.29095122
0.56598693 0.12288705 0.27270752 0.35113427 0.13929285 0.08147062 0.3993958 0.41447875
-0.066157624 -0.060654514 0.20001812 0.23881014 0.3388501 0.13441662 0.10186163 0.45079643

model.3.weight f4 [64, 32, 3, 3]
00000000: f933 2bbd 71bf 15bd 9e1c 0fba a24a 143d
00000010: c889 abbc b11c b3bd bc61 823d 7bbd bc3d
00000020: b846 bb3d 6799 aa3d 7570 ae3d 8809 503c
00000030: 86f5 a13d c617 2b3e 1852 023e b9f2 9abd
00000040: 002d a2ba 0518 423d fe65 15bd 8e8d 763c
00000050: f207 f23c f0cc c6bd 06bc c5bd 8df3 d1bd
00000060: b7bf 6ebb f791 0ebd 5a94 423c 5e4c 583d
00000070: f628 7bbd ae9b a8bd 7afb aebd 6192 bdbd
00000080: 6863 99bd 3ede 4abd a1cf 1ebd f5fc 593d
00000090: baa4 a13d 8e72 f7bb 4431 2dbd 2c15 433c
000000a0: 35bd 373e 7473 3d3e 5e6c c2bd ea11 c1bd
000000b0: 032f abba 44aa 9bbd a660 d5bb 42af 1f3d
000000c0: 8716 4fbb d0f6 89ba 05c0 763c 15e2 6a3d
000000d0: 8e13 5a3d 2daa e2bc 6f74 893d 76d3 d13d
000000e0: 1084 f33c 9524 173d 41ee 143e 4a37 1f3e
000000f0: 7961 66bd 9b24 d9bd 4278 a7bd 7b8e 78bc
00000100: f126 8fbc e59f 77bd 571c 533d f5b0 173c
00000110: 4c1a 28bc 1c72 84bd e8a6 62bb 2dc4 4d3c
00000120: b1d8 b2bd 4740 20bd 5825 6bbd 3b19 063e
00000130: 9aa0 28bd eb6a 5dbd b3c4 1c3e 0f60 563e
00000140: f1c9 023e 99b3 a3bc c606 133b 6a36 1f3d
00000150: ae12 81bd 1b35 83bd a811 6cbd 014b 303d
00000160: 79e2 18bd a27d d43c 3fd6 07bd 00da b9bd
00000170: 8841 1abd 8f42 e93d f7ce c53d 03c1 3bbd
00000180: ceb4 543d 9d59 0d3e 2b43 fb3d 1347 1bbd
00000190: 0b22 f83c cdf2 f83c 2991 b13d 18f9 ec3d
000001a0: 7769 ac3d 9ded 203d df14 b1bb 63c0 c03d
000001b0: a7a9 c6bb 8322 d7bc ad9c aebc b770 05bc
000001c0: 15f9 19bd da60 3d3d 0e04 883d 8e12 dabc
000001d0: 055f a1bb 3a19 a83b a601 ba3c bf2c 8d3d
000001e0: 2602 40bd 7b54 95bd ee0a febc 0080 a83d
000001f0: 5e71 d33b f9dd 7e3d ca4f 103d 6dea 15bd
00000200: 64c9 7dbd 6439 923d 4331 e23c 9dda 773c
00000210: 9982 0cbd 2da7 17bb c109 f53c b701 0bbb
00000220: ed0e 013c b8c0 66bd 3813 b33c 8cc4 6d3d
00000230: 29d1 0dbd 47c8 c53d e03c 9b3d a6ee d73d
00000240: 7f63 a03c 2527 2dbc 6167 6cbd 04f4 76bd
00000250: 62f4 04bd d288 13bd 2553 b4bb 693f 7bbd
00000260: 87cd b5bd 23dc cebb 65ec 2abd 5eb8 16bd
00000270: 8fb1 6a3c dd76 f4bd ee47 a43c 3ffe b3bb
00000280: a08b f8bc e3bf dbbd eb65 7abc 53e0 59bd
00000290: 9fdd 513d b677 87bd 63bd b4bd 4713 06bd
000002a0: 0b52 fd3c 1da4 2ebd e082 64bc ff37 3d3d
000002b0: e20c 22bc 4cdc 6ebd 0089 7abd 24a3 91bc
000002c0: 48a8 d43d 98d3 6dbd 5d7a a7bd 6a44 4cbd
000002d0: 0811 4b3d c7d7 2abd efdb 923d a553 cf39
000002e0: 9b47 c9bc 038d b1bc 3f30 9e3d 34c7 51bd
000002f0: d92e 28bd 4560 393d e26c a83c 6720 f4bd
00000300: 835b 7d3d a923 26bd 8b00 1ebd 00fc 7bbd
00000310: 6f14 29bc bbe9 8d3d f6e9 59bd 1b72 b5bd
00000320: 939b 52bd 96db fb3d 4c42 763c 73ab 05bc
00000330: dbb2 523e 6213 873e 8487 4b3e e31f 5e3c
00000340: 3ee0 0abe 2e3c f3bd 0008 93bd 3626 3cbd
00000350: 686c 94bd cd15 e0bd f343 70bc cfe7 1a3c
00000360: 6de2 063d ddc9 b4bd be66 68bd beb5 0e3c
00000370: 6b9b 143d 8c54 65bd 0427 67bd c70d 02bd
00000380: 7396 b83c e31b 9e3b 7ce2 e43c 43e0 373d
00000390: d404 30bd 9c2a a33c e6ff 473d 089a ecbc
000003a0: 377e cdbc 7b27 883c 99da 193d 471c aebb
000003b0: 0da3 0ebd acf5 75bd 85e5 203a 5199 eabc
000003c0: 7bcc 3b3d 4d96 b8bc 0131 5fbc aa9b 5fbd
000003d0: 0f10 37bc 8e5d 363d 8a82 4cbd ce0c 103d
000003e0: c8cc 813b f026 c2bc e38d a7bc 7bac a3bd
000003f0: f446 7c3c 3e39 d2bc 961f 01bd 3da6 1fbd
-0.04179761 -0.036559526 -0.00054592814 0.036203988 -0.020939723 -0.08745707 0.063662976 0.09215828
0.09144348 0.083300404 0.08517543 0.012697585 0.07908158 0.16708288 0.12726629 -0.07565827
-0.001237303 0.047386188 -0.03647422 0.015048398 0.029544804 -0.097070575 -0.09655003 -0.10251532
-0.003643019 -0.03480717 0.01187619 0.052807204 -0.06131836 -0.082328185 -0.08544059 -0.09256435
-0.07489663 -0.049528353 -0.03877223 0.053219754 0.07892747 -0.007551498 -0.04228331 0.011906903
0.1794327 0.18501073 -0.09493326 -0.09427245 -0.0013060275 -0.07600835 -0.0065117655 0.0389855
-0.003159912 -0.0010525826 0.015060429 0.057344515 0.053241305 -0.027669037 0.06711661 0.10245411
0.029726058 0.03690012 0.14544012 0.15548435 -0.0562453 -0.10602685 -0.08177234 -0.015170689
-0.017474623 -0.06045522 0.0515407 0.009258498 -0.010260176 -0.06467077 -0.0034584347 0.012558979
-0.08732737 -0.0391238 -0.05740866 0.13095562 -0.041168787 -0.054057043 0.1530941 0.20935081
0.12772347 -0.0199831 0.0022434457 0.038870253 -0.06302391 -0.064066134 -0.057634026 0.04304028
-0.037325356 0.025938813 -0.033163305 -0.09074783 -0.03766015 0.11389648 0.09658616 -0.045838367
0.05193024 0.13803716 0.12268671 -0.03790958 0.03028967 0.030389214 0.08670265 0.11570948
0.08418553 0.039289106 -0.0054040994 0.09411695 -0.0060627046 -0.026261574 -0.021314943 -0.008144549
-0.03759106 0.046234943 0.06641398 -0.026620176 -0.0049246573 0.0051299604 0.022705864 0.068933
-0.04687705 -0.07291504 -0.031011071 0.08227539 0.0064527234 0.06222341 0.035232343 -0.03660052
-0.06195964 0.07139853 0.02761138 0.015127805 -0.034304235 -0.0023140416 0.029911878 -0.002121074
0.007877094 -0.056336135 0.02185975 0.05804877 -0.0346233 0.096573405 0.0757997 0.105435655
0.019578693 -0.010568415 -0.057715777 -0.060291305 -0.032459624 -0.036019154 -0.0055030757 -0.06133977
-0.08877092 -0.0063128634 -0.04172935 -0.03679692 0.01432456 -0.11936734 0.02005383 -0.005492955
-0.030340016 -0.10729959 -0.015283088 -0.053192448 0.051236745 -0.0661463 -0.08825185 -0.032733228
0.03092291 -0.04263698 -0.013947219 0.04619598 -0.009890767 -0.05831556 -0.06116581 -0.017777987
0.103836596 -0.05806312 -0.08177636 -0.049869932 0.04957679 -0.041709688 0.07170855 0.00039544437
-0.024570277 -0.021673685 0.07724046 -0.051215366 -0.041060302 0.045257825 0.020559732 -0.11920243
0.06185485 -0.040561352 -0.038574737 -0.061519623 -0.010319813 0.06929346 -0.05320164 -0.088596545
-0.0514179 0.12297742 0.015030455 -0.008158552 0.2057604 0.26381975 0.19875914 0.013557407
-0.13562104 -0.11876713 -0.0717926 -0.04593488 -0.07247239 -0.10941658 -0.014664638 0.009454682
0.03293078 -0.08827565 -0.056738608 0.008710323 0.03628103 -0.055988833 -0.056433693 -0.03175142
0.022532677 0.0048251017 0.027940027 0.044891607 -0.042973354 0.019917779 0.04882803 -0.028882042
-0.025084598 0.016620388 0.037561987 -0.0053134295 -0.034823466 -0.060048744 0.00061377167 -0.02863756
0.045849305 -0.022532606 -0.013622523 -0.054591812 -0.011173262 0.044522814 -0.04992918 0.03516846
0.0039611794 -0.023700207 -0.020453399 -0.079918824 0.015397776 -0.02566206 -0.031524263 -0.038976897

model.3.bias f4 [64]
00000000: a694 973c 91e6 ccbc bfce 583c 4e88 e7bc
00000010: 5d78 4c3d f9d0 43bd 3579 893d 4b27 333d
00000020: 13cb 79bd 71f4 29bd 6205 483d a9c7 25bd
00000030: c0ab 123c 5315 7ebd f454 053d f33f 253d
00000040: 4da9 3c3d b307 56bc 3780 ecbc ec7b 6cbd
00000050: 7068 383d 48bc 3bbd 6818 4e3d 7f2e f93c
00000060: 006e 4abd 465e 46bc 30ab 5fbd e835 363d
00000070: d078 013d 5ffd 353d 6242 853d f290 1fba
00000080: 0775 14bd 0460 7f3c b82b 2cbd f1a5 22bd
00000090: 4f5e faba dfb7 e53b 7f3e 963d 6929 893c
000000a0: baac 03bb e4c3 e7bc fe97 423d cd75 74bd
000000b0: a206 5e3d 5755 533d 3041 a23c ab1a 293c
000000c0: 769a 843c bda7 47bd 547e 6ebc ae3b 8ebc
000000d0: bf62 45bd accc bbbc 64ed 443d d5e8 81bd
000000e0: 6b1f 463d a0ba 053d a9fb 3d3c 7e26 0dbd
000000f0: b413 6d3d 67ab 37bd d2c4 e03b 3293 083d
0.018503498 -0.025012286 0.013232886 -0.028263237 0.049919475 -0.047806714 0.067125715 0.043738645
-0.060984682 -0.041492883 0.04883326 -0.040473614 0.008952081 -0.062032055 0.03255172 0.04034419
0.046059895 -0.013063359 -0.028869731 -0.05773537 0.045021474 -0.045833856 0.050316244 0.030417679
-0.04942131 -0.0121074375 -0.054606616 0.044485003 0.031609356 0.044431087 0.06506802 -0.0006086967
-0.03624442 0.015586857 -0.04203388 -0.039709035 -0.0019101592 0.0070104445 0.07336139 0.016743379
-0.0020091967 -0.02829165 0.047508232 -0.059682656 0.054205544 0.05159506 0.019806474 0.0103213
0.016186934 -0.048743952 -0.014556486 -0.017362442 -0.048189875 -0.022924744 0.048077956 -0.06343237
0.048369806 0.032648683 0.011595645 -0.034460537 0.05788012 -0.044841196 0.0068594003 0.0333435

model.6.weight f4 [128, 64, 3, 3]
00000000: f260 013d e475 2c3c df0a 943c 6261 c5bc
00000010: 9588 43bb ec02 353c 5b25 ce3b 7429 303d
00000020: e6ba 613d f043 cdbc 99a2 f1bd 7bd8 bcba
00000030: d7b5 b9bc 4a2c dfbd f682 80bd 9bd5 97bd
00000040: 39f6 8dbd 1858 a9bd 5bf2 cf3c 6cac 1cbd
00000050: 2d7e 2b3d c28b d3bc fac2 aa3b 77fa 503d
00000060: 31f4 7cbc 0dce 99bc b4a1 24b8 9ba4 11bc
00000070: 8f34 01bd a4f2 85bd 05ee ccbc bce1 b3bd
00000080: 759e 06bd 3b8b 033d 6a2c 50bc e103 163a
00000090: a144 66bc 90eb 913a 1cbb d53c da28 ac3c
000000a0: d5d4 debc f8cd 863d 3532 82bd 4055 5e3c
000000b0: 605e f93c cbb6 0d3c 8a37 873c d6b9 b93c
000000c0: 07b2 aa3c 53b7 163c 2b9d a8bc 8997 08bd
000000d0: d486 3dbc 0be6 cdbc 25e8 933c e255 e0bc
000000e0: 3afa 563d 59b0 97bd ca1b 8dbd a73a 88bd
000000f0: b996 51bd a7a1 edbb 1f7d 83bd 4648 febc
00000100: bddf f5bc 609e 553d d68e bcbd c0f5 86bd
00000110: 7ca1 4bbd c439 85bd d4e8 27bd ef05 a6bd
00000120: 4c6b 243c 42ae 2bbb 1230 3d3d c92e c7bb
00000130: d010 fbbb 728f 53bd 3b57 fbbc 0a47 12bc
00000140: f9e1 cdbc 1187 143d d1bd 27bd fdc1 bd3c
00000150: 0da7 bbbc 1e59 3cbc b3d3 3cbb 7f74 ebbb
00000160: 2485 8d3c 1c3a 5f3c 38c5 6abc 95dc 82bc
00000170: 2269 5b3d 6b0d 1bbd 5697 053d 5c54 10bd
00000180: f913 72bc 905b fbbc 0d73 b03c 507c d5bb
00000190: 4f92 a0bc 3367 debc 35d9 20bc 8be3 d4bc
000001a0: c486 00bc 3fd0 3ebd ee48 16bd 89ab 87bd
000001b0: a695 29bd 4887 94bb e85d 9e3d fba1 863c
000001c0: b8fd c33b 5aed 953d d177 fd3b 0748 36bd
000001d0: 8ce0 d5bc 9f7a edbc 8ae0 dcbd 1d4a bfbc
000001e0: 4a1a 58bd f447 d7bd 882b afbd 6921 96bd
000001f0: 79d1 72bd 3607 f0bd 95a7 8d3c 293b 26bd
00000200: 0cb6 203d 12b5 fa3b 79d8 c0bc c3dc d639
00000210: 05cd e93c 0e32 d0bc f350 7ebd eb47 0a3d
00000220: 16ff 0abd d504 80bc 1179 293d 48e5 da39
00000230: 6fe2 b6bc e180 4bbc db03 ba3c 0bef 5fbd
00000240: 27bc 3f3c e27e 003d 0466 98bb 57cd cc3c
00000250: 6e65 2b3d 0720 edbc 8f81 183d ca19 443d
00000260: f0e9 323c 2d32 873d a133 a43d 8a0e ec3d
00000270: d988 d53c fee6 e7b9 3de4 ba3c 07a6 41bc
00000280: 6fc1 c63c 96b7 5f3d cfa2 233d 9a8d 1d3d
00000290: 6a1a 203d c02a 163d da5d 00bd 7cb4 03bd
000002a0: 926e cb3c b445 e5bc 20c6 ebbc bb33 a7bc
000002b0: 96f4 e9bb ec9a 093d 2c33 0d3d f4e4 ccbc
000002c0: 9914 5abc 6090 993c 31fd 8a3c 8a6b 82bc
000002d0: 40d1 903d 47af 353c 5def 763c 4e2e 993d
000002e0: 6e13 6d3c 3a13 f2bc 3dd7 8a3d 3faf 35bd
000002f0: 701b a4bd 0255 203d ae98 b33c db66 333c
00000300: f69e 8bbc f1b4 d3bc e304 173d 4026 3cbc
00000310: 240f 9abb 4a18 213c 925f a1bc 73f6 113d
00000320: 09a6 83bb 1cdc 28bd de57 b13b 400a 11bc
00000330: 300b d9bb 289e 48bd 3754 84bd 8616 94bc
00000340: 031b 0a3d 7ccb 963b 562c c3bc 6e8a ca3c
00000350: e3fb cf3c cd79 273d e2ab 3cbc 8b03 fabc
00000360: 7fc9 bc3b f212 50bd e292 0b3d b2c3 9c3c
00000370: 6e80 40bd 27f5 38bd c318 77bc 12ba 103c
00000380: a59e 68bd c112 23bc c77f 2a3d 55dc 6d3d
00000390: 6d62 a1bc 1086 763c c3b3 523c beb4 80bd
000003a0: 4e2d b2bc 6291 303d 45a4 69bc de00 0cbd
000003b0: 80e1 1f3d fbde 9d3c 2c6d 45bd 8d4c 0bbd
000003c0: 0fb4 b9ba b6a1 043c 2631 debc 2e2e 2c3b
000003d0: 8fde 5fbc 9eed 603d 174f fbba a39a 0cbd
000003e0: ec74 03bd 8496 913c 8445 203d b10b 363d
000003f0: e821 8bbb 0b95 31bd 76e3 0c3d 4323 eaba
0.031586595 0.010526154 0.01807159 -0.024094287 -0.0029836048 0.01104806 0.006291074 0.043008283
0.05510988 -0.02505681 -0.11798591 -0.0014407778 -0.022669716 -0.10897119 -0.06274979 -0.07413789
-0.06931729 -0.08268756 0.025384119 -0.03825037 0.041868377 -0.025823478 0.0052112313 0.051020112
-0.015439079 -0.01877501 -3.9251245e-05 -0.008889343 -0.031544264 -0.06540421 -0.02501584 -0.0878329
-0.03286596 0.032115202 -0.012705902 0.0005722624 -0.014054448 0.0011132825 0.026090197 0.021015573
-0.027201096 0.06582254 -0.063572325 0.01357013 0.03044051 0.008649538 0.016505975 0.022671621
0.020836843 0.009198981 -0.020582756 -0.03334764 -0.01156779 -0.025134107 0.018055031 -0.027384702
0.05248473 -0.074066825 -0.06890066 -0.06651812 -0.05116913 -0.0072519365 -0.06420349 -0.031040322
-0.030013913 0.05215299 -0.09206931 -0.06589842 -0.04971455 -0.065051585 -0.040993527 -0.081066005
0.010035347 -0.0026196395 0.04618842 -0.0060785753 -0.0076619163 -0.051650472 -0.030681243 -0.00892807
-0.025132166 0.036261622 -0.040952507 0.02316379 -0.022906804 -0.011495857 -0.0028812706 -0.0071855183
0.0172754 0.013624694 -0.014329247 -0.015974322 0.05356706 -0.037854593 0.03261503 -0.0352367
-0.01477527 -0.030683309 0.021539235 -0.0065150633 -0.019601015 -0.027148819 -0.009817411 -0.025987407
-0.007844631 -0.046585318 -0.036690645 -0.066245146 -0.04140248 -0.0045327283 0.07732755 0.01643466
0.0059811734 0.07320662 0.0077352305 -0.044502284 -0.026108049 -0.028989134 -0.10785015 -0.02335077
-0.052759446 -0.10511771 -0.08553225 -0.07330591 -0.0592818 -0.117201254 0.017291823 -0.040583763
0.039236113 0.00765098 -0.023540722 0.0004098174 0.028540144 -0.025414493 -0.062088918 0.033759993
-0.033934675 -0.015627304 0.041375224 0.00041751028 -0.022324769 -0.012420864 0.022706917 -0.05467133
0.011702574 0.031371005 -0.004650833 0.025000257 0.041844778 -0.028945936 0.03723293 0.047876157
0.010920033 0.06601367 0.0801766 0.115262106 0.02606623 -0.00044231856 0.02281391 -0.011819369
0.024262158 0.05461844 0.03995019 0.03846512 0.03908769 0.036661863 -0.031339504 -0.032154545
0.024832997 -0.027987339 -0.028780997 -0.02041041 -0.0071397526 0.03359501 0.03447263 -0.025011517
-0.013310575 0.018745601 0.016966434 -0.01592042 0.07071161 0.011089153 0.015071717 0.07479535
0.014469964 -0.029550184 0.06779335 -0.04435658 -0.08013046 0.03914357 0.02192339 0.010949816
-0.017043572 -0.025843116 0.036869895 -0.011483729 -0.004701512 0.009832451 -0.019698892 0.035635423
-0.0040175957 -0.041225538 0.005412086 -0.008852541 -0.006623648 -0.048978955 -0.06461375 -0.018077146
0.033717167 0.004601894 -0.023824852 0.024724212 0.025388664 0.040887643 -0.011515589 -0.030519268
0.005761325 -0.050799318 0.034075625 0.019136284 -0.04699748 -0.04515567 -0.015081587 0.008833425
-0.05679192 -0.009953202 0.041625764 0.058071453 -0.019700253 0.015046611 0.012860241 -0.06284474
-0.021750119 0.043107398 -0.014260356 -0.034180515 0.039033413 0.019271364 -0.048199818 -0.03400855
-0.0014168042 0.0080951955 -0.027123045 0.0026272642 -0.013663902 0.05491411 -0.0019173351 -0.03432716
-0.032093927 0.017771967 0.039128795 0.044444744 -0.0042459853 -0.04335503 0.03439661 -0.0017863292

model.6.bias f4 [128]
00000000: 4b56 4f3d 4776 1ebc 6db6 c43c bc4e 52bc
00000010: 1e87 68bb 0b47 2f3b 83ea d63c 9dd3 8f3c
00000020: 4631 29bd 9a71 39bd 28e5 4fbd f1f7 ddbc
00000030: 6dc6 d53c 0468 973c 5e52 c9bc 4005 05bd
00000040: 6557 a4bc 8be0 57bc 204f 063c 890d ffbc
00000050: c2b3 17bd 3542 f73c 6628 b03c f573 03ba
00000060: a59e fb3c 1e00 d0bc b3ed 39bc ba21 133b
00000070: b379 803c 789b b7bb 96be 033d bc97 2abd
00000080: e087 553c 75c2 07bd 1d55 023b c806 1fbd
00000090: 07df adbc 2296 e1bc f4ab c63c 8071 33ba
000000a0: d58f 073c 017a b7bb 7fd7 94bc 1e6e f63c
000000b0: c6a5 ecbc 02cd 9cbc fd4f ebbc 6727 113b
000000c0: 45a7 3bbd 97ed a2bc 1b18 1bbd 475e d1bc
000000d0: 014c f83b 3f6e bc3b b12e 0abd 78bb 14bd
000000e0: a9e9 10bc 817c 3839 9b73 23bc c007 29bd
000000f0: 754a 06bd 6f58 e1bb 8f4c c53b c706 24bd
00000100: ed8d 5b3c d744 a93c e0d6 f0ba 68aa 42bd
00000110: 4adf a1bc 8d87 6c3c 0ad8 30bd 5ebc 31bd
00000120: 9d3b e3bc 5bf4 993c 01ce d43c 02f3 8b3c
00000130: 95dc 2fbd 7176 873c dc43 873c 7d64 2bbd
00000140: b199 27bd d767 2abd f562 0ebd 8968 923c
00000150: d2d3 8c3b 4985 78ba 6432 62bb aa1f 0cbd
00000160: 0f9b 163d dd41 b3bc e98c ebbc 9166 47bd
00000170: 507f 5f3b da27 8c3b 6ddc 96bc f092 053d
00000180: ec35 b73c 20fc b8bc 9dd6 8bbb b510 2dbd
00000190: a459 343c 4cad 96bc f968 45bd f28a f33c
000001a0: b15c 25bd 21d9 06bd 9ea3 633c e3fb 333c
000001b0: e611 13bd 2851 0fbd cc49 59bb 0124 8cba
000001c0: cce3 60bd 751e 1a3c f461 13bc 44fd b6bc
000001d0: 2ce5 523c 5256 083d d6b0 36bc 5d69 29bd
000001e0: 33de 41bd 774c 8ebb 51b7 e6bc 749b c8bc
000001f0: 2367 6d3c 1734 56bc 815a 06bd 83bd 893c
0.050619405 -0.009671754 0.024012769 -0.012836155 -0.0035480927 0.0026745226 0.02623487 0.01755696
-0.041306756 -0.045274355 -0.05075565 -0.027095767 0.026095593 0.018482216 -0.024575409 -0.03247571
-0.020061204 -0.013176094 0.008197576 -0.031134384 -0.037036665 0.030182937 0.021503638 -0.00050145324
0.030715296 -0.02539068 -0.011348176 0.0022450523 0.01568303 -0.00560325 0.03216418 -0.04164861
0.013032883 -0.033144433 0.0019887157 -0.038824826 -0.021224512 -0.02753741 0.024251916 -0.0006845221
0.008274038 -0.005599261 -0.018169163 0.030081805 -0.02888764 -0.019140724 -0.028724665 0.002214873
-0.045813818 -0.019888682 -0.037864786 -0.02555765 0.0075774197 0.005750447 -0.033735935 -0.036311597
-0.008844771 0.00017593989 -0.009976293 -0.041267157 -0.03278585 -0.006876997 0.0060210894 -0.040045526
0.013400537 0.020662708 -0.0018374585 -0.047525793 -0.019759793 0.014436615 -0.04317478 -0.04339253
-0.027738387 0.018793276 0.025977137 0.017083649 -0.042934973 0.01653597 0.01651185 -0.04184388
-0.040918056 -0.041602936 -0.03476234 0.017872112 0.004297712 -0.000948031 -0.0034514898 -0.034209885
0.03676897 -0.021881992 -0.028753715 -0.0486818 0.0034102984 0.0042772116 -0.018415654 0.032610834
0.02236458 -0.02258116 -0.0042675273 -0.04225226 0.0110077 -0.018393181 -0.048195813 0.02972934
-0.0403716 -0.032921914 0.01389399 0.010985347 -0.03590574 -0.034989506 -0.0033155559 -0.0010691882
-0.054904744 0.009406676 -0.008995522 -0.022337563 0.012872022 0.033285446 -0.011150559 -0.041360248
-0.047331046 -0.0043426114 -0.028163584 -0.024488188 0.014489922 -0.013073943 -0.032801155 0.016813999

model.10.weight f4 [64, 1152]
00000000: e99f 963c 2265 e13c c860 c3bc a8c6 e03c
00000010: 6eb3 cbbb 4625 d0ba 35b4 8d3c f309 9c3b
00000020: a7ff 013d e892 5cbc 05f1 703c e72a 76bc
00000030: ffb7 f43c f22b df3a 0781 a5bc 650d 563c
00000040: 4727 043c 8078 9abb bba1 aabc 2f66 7d3c
00000050: b4dc ed3c cf33 25ba 8823 e63c abcb d03c
00000060: cff3 d23c 2735 01bd 382b 48bc 5033 c1bc
00000070: 24b1 1fbc 43fb 97bc 2717 85bc 535a 18bd
00000080: b601 d0bc 1fc1 c03c 9d04 47bc 0990 1d3c
00000090: c9de d3bc cfe5 4dbc 5cb7 eabb 3303 953c
000000a0: 53dd 5cbc 8856 02bc 3345 f6bb 181e 3b3c
000000b0: dc2c 8a3c 043e 7cbb 2642 ba3c 026c 063c
000000c0: 0360 e4bb f93d 983c 10f5 8abc 7300 57bc
000000d0: 80ff 82ba 7edb 93bb ce19 90ba 6d7b c9ba
000000e0: a536 903a 7cd2 3a3c 6f40 8cbc d65a 183c
000000f0: 46d1 b4bc 3fe9 efba 9b83 bfbb aa96 cc3c
00000100: 124e 133c ea76 0d3c 4448 0239 9c28 78bc
00000110: 562a 993a f7f2 8bbc 9935 67bc 558f 213b
00000120: 854a bcbc ed1f d7ba b0f1 b43c 49d8 e03c
00000130: e185 56bb 787c 82bc 85f2 01bd c447 33bc
00000140: 59c1 6fbb 04f5 acbc 3276 e13b c289 e63a
00000150: e99c b9bc a7d0 e3bc 3140 613b 327f 853c
00000160: f730 af39 2caa efbc 3d57 a53b 8635 d63a
00000170: ef61 9ebc d45a 5b3c 41a9 1c3c fbcd 8a3c
00000180: 0c89 a43b 8e33 293b 9f2b fe3b 6d2f 9f3c
00000190: 20d4 a3bc f98c 843b ab22 70bc 4d01 e0bc
000001a0: 4422 1d3c 700f 613c 74f4 44bc 0e0b 6f3a
000001b0: 8e81 963c e868 5f3c 07b7 e3bc a5ed 54bb
000001c0: 2969 eebb 90fc 4cbc 4511 ca3c cee3 e1bc
000001d0: b083 98bc 3dd0 bcbc 9571 b0bc 29e0 cf3b
000001e0: a225 babc f45e 203d 3d24 0dbb 620a 7e3c
000001f0: 2997 483c 16c2 d9bb c972 adbc 9680 93bc
00000200: 99b4 afbc 8525 d1bc b22e efbb 3146 95bc
00000210: 5f42 ecbc 5055 b5bc 39a2 92bb ec27 47bc
00000220: 160c e6bc 413a 91bc 974f 303c 846e 0c3d
00000230: 1dc2 af3c f784 d5bc 0a23 8b3c 7a77 f5bc
00000240: a822 42bc 8161 e23c db8d aebb ffab 92bb
00000250: 2f73 3b3c 8334 08bc 8b07 a6bc 6b52 9e3b
00000260: 812c 20bc 0b8c ba3c dbc5 793c 8d93 70bc
00000270: af8a 603b fcc4 9f3c 511a 1d3c 4431 753c
00000280: 9160 543a da0e 3a3d e258 043d 5c34 e8b9
00000290: 16ee dabb f42e 95bc c3e6 3a3b f7db 83bc
000002a0: a443 dabc 5f53 863c 9bb4 dabb 07d8 7a3c
000002b0: e58c 1f3c 09f0 eebb 6776 a1bb 29ae aebc
000002c0: 49cc 1c3c 46d1 8b3c 6240 edbc 87b6 2a3b
000002d0: cc65 9dbb e58e 92bc 8f7e 823c 9213 cf3c
000002e0: 92a5 86ba 71ae c0bc f9c7 d8bc ba04 7b3b
000002f0: 8337 043d 1e2b f23c b6ed cd3c 3095 2fbc
00000300: 1aa5 b2bc d8cc dabc 5614 86bc c578 f83b
00000310: d93e 923c 3ac8 da3b e8d9 1bbc a17d 22bc
00000320: b9e5 38bc cc91 2ebc 769d ae3c 6542 cabc
00000330: 8f5a dabc 151c 943c 7f2d a93b 8bf0 273c
00000340: dc91 ac3c a513 d63c 6718 8ebc 14db 103c
00000350: 178d 81bc e224 39bb 657c de3c f3be 9e3a
00000360: f36b 963b 98cb 84bc 122a f1bc 9f6b d0bc
00000370: 1cc6 4b3b 7cb4 0838 75be dbbc ecdf b03c
00000380: 4274 81ba d3ec d23c 629c 14b9 d32e f2bc
00000390: 7b73 793c 8b5a 9abc d1ab 7dbc 7ad5 483c
000003a0: 417b df3c 98de 6fbc e0a9 c5bb 6ec7 243c
000003b0: 5e4e c0bc 2c44 d33b a156 ebbc 5498 023c
000003c0: d9ca 773c ce8d 463c f1d0 963c c934 043c
000003d0: d293 103d 907d c6bc 7f13 92ba d122 0cbd
000003e0: b3cb bfbc 49d6 8abc 39d4 d8bc 55be ff3b
000003f0: 476f 653c d6fa 71bc 3e15 c2bc aa7b 1f3c
0.018386798 0.027514044 -0.02384986 0.027438477 -0.006216458 -0.0015880249 0.017297843 0.004761928
0.03173795 -0.01346276 0.014705901 -0.015024877 0.029872892 0.0017026647 -0.020203127 0.013064717
0.008066005 -0.0047140718 -0.020829072 0.015466257 0.029035904 -0.00063019706 0.028093114 0.025487741
0.025751023 -0.03154483 -0.012217335 -0.023584038 -0.009746823 -0.018552428 -0.016246391 -0.037195515
-0.02539144 0.023529587 -0.012147096 0.00961686 -0.025863068 -0.012566998 -0.0071629714 0.018190002
-0.013480502 -0.007955201 -0.0075155734 0.011420749 0.016867094 -0.0038489113 0.02273662 0.008204462
-0.0069694533 0.018584238 -0.016962558 -0.013122666 -0.0009994358 -0.0045122495 -0.0010994019 -0.0015371867
0.0011002613 0.011402722 -0.017120568 0.009299001 -0.022072446 -0.0018303766 -0.005844546 0.024974186
0.008990781 0.008634308 0.00012424687 -0.015146401 0.0011685591 -0.017083628 -0.0141119 0.0024652083
-0.022984752 -0.0016412713 0.022087902 0.027446883 -0.0032733607 -0.015928492 -0.031725425 -0.010942403
-0.003658375 -0.021112926 0.006880545 0.0017588662 -0.022657828 -0.027809454 0.0034370536 0.016296003
0.00033415083 -0.029255949 0.0050458 0.0016342856 -0.019333808 0.013388354 0.009561838 0.016943922
0.00502122 0.0025818083 0.007756665 0.019431794 -0.01999861 0.0040451256 -0.014656703 -0.02734437
0.009590689 0.013736591 -0.012021173 0.0009118774 0.018372323 0.013635851 -0.027797235 -0.003249028
-0.0072757197 -0.0125113875 0.024666438 -0.027574446 -0.018617481 -0.023048515 -0.021538535 0.0063438606
-0.022723023 0.039153054 -0.0021536492 0.015505405 0.012243071 -0.0066454513 -0.021172898 -0.01800565
-0.02144842 -0.025530586 -0.0072992677 -0.018221946 -0.028840242 -0.022135407 -0.004474905 -0.012155514
-0.028081935 -0.017727973 0.010761163 0.034285083 0.021454865 -0.02606438 0.016984481 -0.029964197
-0.011849083 0.027634384 -0.005326969 -0.00447607 0.011441036 -0.008313301 -0.020267269 0.0048316023
-0.009776236 0.022771856 0.015244926 -0.014683616 0.003426235 0.01950311 0.009588794 0.014965359
0.0008101548 0.04542432 0.032311328 -0.000442895 -0.006681214 -0.018210866 0.0028518892 -0.016096098
-0.026643582 0.016397176 -0.006674362 0.015310294 0.009738182 -0.007291798 -0.0049274447 -0.02132328
0.00957019 0.017067563 -0.028961364 0.0026048736 -0.004803395 -0.017890403 0.015929488 0.025277887
-0.0010272732 -0.02352068 -0.026462542 0.0038302378 0.032279503 0.029561576 0.025137763 -0.010716721
-0.021807242 -0.026709005 -0.016367119 0.007582756 0.017852234 0.006676701 -0.009512402 -0.009917648
-0.011285239 -0.010654878 0.021315318 -0.024689863 -0.02665451 0.018079797 0.0051628943 0.010250221
0.021065645 0.026132414 -0.01734562 0.008841295 -0.015814347 -0.0028250744 0.027158925 0.0012111351
0.0045905053 -0.016210362 -0.029439006 -0.025441943 0.0031093424 3.2593016e-05 -0.026824215 0.02159115
-0.0009876566 0.025747692 -0.00014172637 -0.029563343 0.015225287 -0.018842002 -0.015482859 0.012257928
0.027280452 -0.014640473 -0.0060322136 0.010057313 -0.023474868 0.0064473357 -0.028727831 0.007970888
0.015124046 0.01211877 0.018410178 0.008069226 0.035297222 -0.024229795 -0.0011144726 -0.03421289
-0.023412561 -0.016947882 -0.026468383 0.007804672 0.014003581 -0.014769277 -0.02369177 0.009734074

model.10.bias f4 [64]
00000000: ecac ab3b e3bb cabc 5ebb ab3b e498 0e3b
00000010: 8dc7 ef3c 5c52 7c3b 354d 6c3d 1311 b03c
00000020: 4cf6 0c3c cbf8 293c cb07 443d 6896 473d
00000030: 137c d83c 50fe ffbb ab00 c23a 716c 933b
00000040: fb07 313c 5277 a9bc 3356 1e3d 0259 abbb
00000050: 8df6 fdbb 103c d93c 0239 533c 6bcc 9ebc
00000060: 59de 363c b147 1dbd b2b0 3fbc 9404 2dbb
00000070: 9aef 463a 76db d2bc 4e8f 3d3d 8cbb 233c
00000080: f112 4b3d 5e29 aebc dc31 b63a 7055 cebc
00000090: 817f 8b3c a301 e13c bb87 d33c f967 bdbc
000000a0: a137 6f3c 0a29 8f3c acc7 f53c 490e 57b9
000000b0: 2bfa fbbc e0ae a03c 1791 0cbc e918 063d
000000c0: b2b9 3b3b a71f fd3c 8e26 97bc 18ec 12bc
000000d0: be54 a73c 6a3d a1bc 0092 c33a ce4b 7fbc
000000e0: 93c3 c13c 697c d13c ec8f 42bc 0da2 6d3b
000000f0: 6a39 12bd dffe d63c 2240 93ba 0070 713c
0.0052391198 -0.024747794 0.005240842 0.002175861 0.029269958 0.0038501238 0.057690818 0.021492517
0.008603644 0.010374258 0.047858994 0.048727423 0.02642635 -0.007812299 0.0014801224 0.004499011
0.010805125 -0.02068678 0.038656425 -0.0052291164 -0.0077503384 0.026517898 0.01289201 -0.019384583
0.01116141 -0.03839845 -0.011699842 -0.0026400434 0.0007588804 -0.025739413 0.046279244 0.009993445
0.04957861 -0.02125996 0.0013900357 -0.025187224 0.017028572 0.0274666 0.025821557 -0.023120867
0.014600665 0.017475624 0.030002438 -0.0002050932 -0.030758938 0.019614637 -0.008579514 0.0327386
0.0028644619 0.030898882 -0.018451001 -0.008967422 0.02042615 -0.019682605 0.0014920831 -0.015582038
0.023652827 0.025572019 -0.011875134 0.003625992 -0.035699286 0.026244579 -0.0011234323 0.014736176

model.12.weight f4 [47, 64]
00000000: 1693 21bd 5d17 cabd 3f0d b23d d2d0 f6bd
00000010: c7cf 953d 3619 65be 698f 7abc 33c0 d6bd
00000020: 1ea8 a03d 8a8f f9bd f980 863c 37fe 5fbe
00000030: 9da8 aabd 7c21 723e 8518 113e 40fc 6c3e
00000040: 8d14 2f3d 4175 b2bc 331e c4bd 8c22 8f3b
00000050: c35e 77be d3f1 3a3c 8c05 8e3d 3e83 0fbe
00000060: 0420 8f3d 9793 5fbd 2221 82be a7f2 823e
00000070: 1ce9 13bc 05cb 0d3e 69d3 ba3e 0adb 6abd
00000080: 4035 18be 708c 2dbc 635b 53be a0fe 013e
00000090: bee9 da3d 58a8 9abd c632 2abc 1301 32be
000000a0: b08a fabc 5fb1 9bbd 4e00 dd3e df38 c93d
000000b0: 7416 a43d 2615 8f3d 1a43 28be 99fe bd3e
000000c0: 3325 433e f1a4 61be ebba 883d 267b d2bc
000000d0: 7a9e 653d c439 4e3d cf61 363e 50d8 37be
000000e0: 9c39 1ebe d867 9fbd 5c6e acbc f2fb 363c
000000f0: 2a88 6dbd eb6c 4ebe 3fe6 4fbe 2655 043e
00000100: a5e8 373d c7e7 37bd 870f 593d 378c aa3d
00000110: 326b 8dbe 2a1b b13e cd80 833e 16e7 02be
00000120: 2a80 013e 9b48 dfbd eaa6 923e 2647 913e
00000130: eff4 81be 8158 09be fab7 09be bdaf 98be
00000140: 9e30 7dbe a476 053e dc9c 703e a6fd 06be
00000150: e77e 72bd 8254 413e 4ae9 133a 3828 fbbd
00000160: 04a9 473d 4d3f aa3d 8bf5 fa3d 56d9 7b3e
00000170: f837 e83d 9b5b 24be 59bd 9dbd a919 07be
00000180: 14e8 e73d 7c7e 2f3c 1566 0abd 3a78 b53d
00000190: 20fd 143e 04a4 e03d f78b 1ebc 6439 a1bc
000001a0: 06d8 a2b9 95fb 65bd abf4 513e 80e9 6bbd
000001b0: 6411 b8bd 36bb 1fbd 960f 7e3d 06ac 23be
000001c0: add5 993e 12de 4cbe dd2c bd3c e51f 16be
000001d0: a111 043e 671e ab3d f835 ddbd 0374 f03d
000001e0: 5f41 8f3d dbf6 663c 321e 1ebe 22a8 3abe
000001f0: cf76 bdbd ddaa 18be b297 c73d 3e26 d6bb
00000200: 1913 f8bd 8cf9 593e 734c ecbd abf6 d6bd
00000210: 6e6b 9abc a6b1 c03d d988 e53e 1066 a43d
00000220: 9223 38be f0e1 db3d a9c7 bbbe 71f1 f3bc
00000230: aa65 753e e93f f2bc 684d f7bb a68c cbbe
00000240: 84d2 a8be 75d2 c03d 54b1 c1bd 0ab0 ae3d
00000250: 3bcd 83bd 662d 03bd a791 63be 8abf a23c
00000260: 74dc 59bd 2a2a 5dbe 510e 103e 90b6 89bd
00000270: ba45 3fbe c569 fc3e 5dc4 753d d205 76be
00000280: 4660 16be 94c1 6abd 6acd f73d d024 a4bd
00000290: e254 2d3d 394d 153e 9076 15be 111b 343e
000002a0: 6a5d f83d b4b9 483d 7dda 28bd ba11 80bd
000002b0: fe11 b1bd 8dc8 1fbe a363 9c3e 1d0b 6dbb
000002c0: 5442 b23d 0a84 163e 5d47 88bd 056a b8bd
000002d0: 68a9 0a3d 5d40 8cbd e3a9 413c f104 923e
000002e0: 4a1b 36be 2d72 c7bd da1a 7cbe 2df3 86bc
000002f0: ffa7 c8bd 3b52 343c 3820 8b3e 4e1c ab3d
00000300: 314b cabc 6670 f7bd b14e 4f3c ea86 af3e
00000310: ed00 853d c04c e2bd 66d5 943e 4b22 96be
00000320: 582b 993e b421 1bbe 3843 cb3d a006 29be
00000330: d513 4c3e 1bd5 8dbd 1b7d 6c3d 8904 ca3c
00000340: b8c2 8ebe ec55 c83c 31ed 7fbe b695 26be
00000350: e44d c2bd 6b22 24bd dd1e 513e af46 6c3d
00000360: 0b54 c73d 2f30 20be db84 a1bd c686 abbd
00000370: 385c 8abe dddc fa3e 5f9b ac3e 9c90 e0bd
00000380: 3c23 49bd 5315 4dbd 48d2 5fbe 7221 b3bc
00000390: 427c 21bb 2f3c 1bbd caad c3bc 7ac9 0ebd
000003a0: b237 b9bd c81f ad3d 3608 91be 4f98 00bd
000003b0: a5b7 bdbd 53b0 c7bd a1ee b93d 6408 9ebe
000003c0: 7d92 1fbd 17b8 16be 0a01 753d 61e9 363e
000003d0: 25d5 dfbd 3e2e 6a3c 8d41 3abe 83a8 a83d
000003e0: 53d6 38bd 0806 f9bd 6222 1cbe ca79 6c3e
000003f0: 2a3a e4bd a0ad 70bd ae24 4cbe b0c2 4ebd
-0.039446913 -0.098677374 0.08693933 -0.12051548 0.07315021 -0.22372898 -0.015292981 -0.10485878
0.07844566 -0.12185581 0.01641892 -0.21874319 -0.08332942 0.23645586 0.1416951 0.231431
0.042744208 -0.021784427 -0.095760725 0.004368132 -0.24157242 0.011410194 0.06934652 -0.14014909
0.06988528 -0.054584112 -0.25415903 0.25575754 -0.009027746 0.13846977 0.36489418 -0.0573378
-0.14864063 -0.010592565 -0.2064033 0.12694788 0.10689114 -0.0755164 -0.010388082 -0.17383222
-0.03058371 -0.0760219 0.43164295 0.098253004 0.08012095 0.069864556 -0.16431847 0.37108305
0.19057159 -0.22035576 0.06676277 -0.025693487 0.05605934 0.05034806 0.17810749 -0.1795361
-0.15451664 -0.077834785 -0.021048717 0.011168467 -0.057991184 -0.20158736 -0.20302676 0.12923107
0.0448996 -0.044898774 0.052993324 0.08327525 -0.27620846 0.34591037 0.25684205 -0.12783465
0.12646547 -0.1090252 0.2864297 0.28374594 -0.25382182 -0.13412668 -0.13449088 -0.29821578
-0.24725577 0.13033539 0.23497337 -0.13182697 -0.059203055 0.18879893 0.0005642368 -0.122635305
0.04874517 0.08312855 0.12253865 0.24594626 0.113388 -0.1605057 -0.07702131 -0.13193382
0.11323562 0.010711309 -0.03378876 0.08860822 0.14549685 0.109687835 -0.009676925 -0.019680686
-0.00031059998 -0.05614813 0.2050349 -0.05759573 -0.08987692 -0.038996898 0.062026583 -0.1598359
0.30045834 -0.20006588 0.023092682 -0.14660604 0.1289735 0.08355408 -0.10801309 0.117408775
0.069948904 0.014096941 -0.15441206 -0.182282 -0.092511766 -0.14908929 0.097457305 -0.0065353205
-0.121130176 0.21286601 -0.11538019 -0.10496267 -0.018850055 0.09408884 0.4483097 0.080272794
-0.17982319 0.107364535 -0.36675766 -0.029778214 0.23964563 -0.02957149 -0.0075470693 -0.39755744
-0.3297311 0.094151415 -0.09457651 0.085296705 -0.06435629 -0.032025717 -0.2222353 0.019866724
-0.053188756 -0.21598116 0.14067961 -0.06724274 -0.18678942 0.49299446 0.06000172 -0.24025658
-0.14685163 -0.057313517 0.120997265 -0.08014834 0.04231728 0.1458024 -0.14596009 0.1758845
0.12127192 0.049005225 -0.04122399 -0.06253381 -0.0864601 -0.15603848 0.30544767 -0.0036169954
0.08704057 0.14698806 -0.066542365 -0.090045966 0.033852965 -0.06848214 0.011820289 0.28519395
-0.17783847 -0.09738574 -0.24619618 -0.016473377 -0.09797668 0.011005933 0.27173018 0.08355008
-0.024694057 -0.12081985 0.012653039 0.3428262 0.06494317 -0.11049795 0.2906906 -0.29323038
0.2991588 -0.15149575 0.0992493 -0.16506433 0.1992944 -0.06925412 0.057736497 0.024660366
-0.27882934 0.024455033 -0.24992825 -0.16268048 -0.09487513 -0.040071886 0.2042193 0.057684597
0.09732827 -0.1564338 -0.07886668 -0.08375315 -0.27023482 0.4899663 0.3371229 -0.10965082
-0.049105868 -0.050069164 -0.2185756 -0.021866534 -0.0024640714 -0.037899192 -0.02388658 -0.03486011
-0.09043826 0.084533274 -0.28326577 -0.031395253 -0.09263543 -0.09750428 0.09078718 -0.30865777
-0.03895806 -0.14718662 0.059815444 0.17862464 -0.10929326 0.014293252 -0.18189068 0.08235266
-0.04512627 -0.121593535 -0.15247491 0.23093334 -0.111439064 -0.05875933 -0.19935867 -0.050478637

model.12.bias f4 [47]
00000000: d6cc 303d 0850 883d 6304 9c3d 6401 48bd
00000010: a1f5 29bd 11ac 79bc 0c33 56bc 895b 9fbd
00000020: a2db 3b3c 6aff 82bd d087 8c3d 26df 9d3d
00000030: c32d 84bd d0cc 3cbd a0b5 0a3e ea63 103d
00000040: 93d3 843d 9c73 1c3b 93b8 c2bb 2ef2 0ebd
00000050: a367 bfbd 50c4 71bd 3e1b 80bd c53b 84bc
00000060: 3ed8 003d 75e7 a83c 4623 e93c 13a6 43bd
00000070: d32b 9a3d ae73 b1bd cbef e03d 7409 60bd
00000080: d675 82bd 2218 f6bc 18dc a23c f13d cbbb
00000090: d834 1cba 4a66 f23a 20d3 823d 63c9 a3bd
000000a0: d608 943d 37c8 f13d a446 0f3c f8f7 28bd
000000b0: 317d ab3d cc8b edbc 9d0e 923d
0.043164097 0.0665589 0.07618024 -0.04882945 -0.041494016 -0.015238778 -0.013073694 -0.07781131
0.011465939 -0.063963726 0.06861842 0.07708578 -0.06454041 -0.046093762 0.13545847 0.035251535
0.06485667 0.002387262 -0.005942413 -0.03489893 -0.09345939 -0.05902511 -0.06255196 -0.016141782
0.031456225 0.02061818 0.028459202 -0.047765803 0.0752789 -0.08664642 0.10983237 -0.054696515
-0.06370132 -0.030040804 0.01988034 -0.0062024524 -0.0005958802 0.0018493619 0.06387925 -0.07997396
0.07228248 0.11805766 0.008744869 -0.041252106 0.08373488 -0.028997324 0.071316935
